models/current_model/portable/weights_encoder.pt (torch, 4375 bytes, 6 tensors)

lin1.weight f4 [16, 13]
-0.5752751 -0.36673903 -0.36950427 0.44472876 -0.20191602 -0.5447394 -0.5576453 -0.05075245
0.01391172 -0.2881932 -0.15915406 -0.44287467 0.057162043 0.3111452 -0.030321635 0.19278537
-0.3048174 0.33088613 0.36922228 0.3653789 0.689686 0.26715416 0.31681454 -0.16021113
0.07414585 -0.01353972 -0.38710392 -0.40174338 -0.08175364 0.08433511 -0.029703232 0.1506462
0.26094767 -0.035552103 -0.25721183 -0.3313111 -0.32417455 0.31442362 -0.26341635 0.21246529
-0.43520966 -0.26459965 0.250893 -0.42468706 -0.07326833 0.011423634 0.00997317 -0.56136984
-0.22102238 -0.5679299 0.4988066 -0.5027833 0.06052858 -0.04945281 0.27499527 -0.39762655
0.45523876 -0.28413495 0.014326449 0.558779 -0.52436656 -0.43728113 0.2898174 0.5714205
0.12921926 -0.46258578 -0.24738882 0.34826687 -0.00324766 -0.24386913 -0.31523293 0.006935427
0.23342197 0.032695077 -0.20635651 0.17651983 -0.30534473 -0.2052468 0.4579332 -0.15720403
0.5370329 0.17436066 -0.04572177 0.097936004 -0.14227085 -0.100614995 -0.36579168 0.18994293
-0.1954843 0.15098155 -0.18401726 0.26821458 -0.49901545 0.26263314 -0.10859049 0.089512154
-0.21945079 -0.012212598 -0.028404584 -0.0620857 -0.29605126 -0.011601418 -0.06842681 -0.27026892
0.11801399 -0.110464446 0.14078005 0.40895802 -0.4133425 0.07189615 -0.11924064 0.2958894
0.007911387 0.20185904 -0.089919135 -0.046324708 0.3224944 -0.18089172 0.14603199 -0.1352886
0.20849137 -0.07980702 -0.27024767 0.051638637 -0.14100653 -0.2973555 0.27923238 0.25954568
-0.20120272 -0.1376643 -0.4821742 0.11390639 -0.28709286 0.72239155 -0.15549155 -0.23607741
0.3852701 0.31186134 -0.041188963 0.33658662 -0.18942176 0.2145438 -0.07952327 0.27451593
-0.45886463 -0.0018198297 -0.60870725 -0.12267972 0.1618313 -0.37630573 0.20282766 -0.68328065
-0.13036749 -0.046940636 -0.071627386 0.0932447 0.50251764 -0.19885805 0.4902246 0.36287796
-0.11745665 0.075701036 0.09957936 0.5633615 0.64236486 0.10371398 0.46022722 0.2210907
0.19217566 0.15193969 0.45722234 -0.2145977 -0.15463449 0.4712956 0.16525702 -0.0024920886
-0.3781932 0.4495461 -0.01957045 0.30568662 -0.07520544 0.3811808 -0.3639048 -0.003522074
-0.26219267 0.518517 -0.6618232 -0.5678636 0.3671884 -0.044738322 -0.42487773 -0.4282773
-0.1053412 -0.58469456 0.031905115 0.55040246 -0.28385416 0.12198486 0.28232414 -0.11522065
0.136378 0.4650462 0.4315481 -0.028755281 -0.13309534 0.19410758 0.38856646 0.29382116
00000000: 3b45 13bf 38c5 bbbe aa2f bdbe 7db3 e33e
00000010: 13c3 4ebe 0b74 0bbf d8c1 0ebf cde1 4fbd
00000020: fced 633c 0f8e 93be 48f9 22be 78c0 e2be
00000030: bf22 6a3d 6c4e 9f3e 1465 f8bc 8769 453e
00000040: 0711 9cbe e869 a93e b40a bd3e f112 bb3e
00000050: 438f 303f 6ec8 883e 8435 a23e 630e 24be
00000060: c8d9 973d b4d5 5dbc 7c32 c6be 4fb1 cdbe
00000070: 746e a7bd e3b7 ac3d 3154 f3bc ff42 1a3e
00000080: ef9a 853e 159f 11bd 45b1 83be 9ca1 a9be
00000090: 35fa a5be 22fc a03e 82de 86be 8090 593e
000000a0: cdd3 debe 9b79 87be 0c75 803e 9570 d9be
000000b0: b50d 96bd 322a 3b3c 8266 233c efb5 0fbf
000000c0: b153 62be db63 11bf 9463 ff3e 68b6 00bf
000000d0: d1ec 773d 088f 4abd 2ecc 8c3e b595 cbbe
000000e0: 0e15 e93e 237a 91be 7bb9 6a3c 240c 0f3f
000000f0: e33c 06bf 50e3 dfbe f262 943e 9d48 123f
00000100: 0e52 043e 0bd8 ecbe 7f53 7dbe 0950 b23e
00000110: b1d6 54bb d4b8 79be 3666 a1be 9442 e33b
00000120: 2b06 6f3e 46eb 053d 1f4f 53be 9dc1 343e
00000130: 2556 9cbe 382c 52be 3876 ea3e 18fa 20be
00000140: fd7a 093f 9a8b 323e c046 3bbd ac92 c83d
00000150: 73af 11be 3c0f cebd 0c49 bbbe 6680 423e
00000160: 092d 48be e89a 1a3e 056f 3cbe 6c53 893e
00000170: f47e ffbe da77 863e b164 debd 2652 b73d
00000180: b5b7 60be 5917 48bc bbb0 e8bc 934d 7ebd
00000190: 0894 97be e013 3ebc 5b23 8cbd b060 8abe
000001a0: 52b1 f13d 2f3b e2bd a528 103e f262 d13e
000001b0: a1a1 d3be 4a3e 933d 7034 f4bd d17e 973e
000001c0: c39e 013c 23b4 4e3e 8627 b8bd fabe 3dbd
000001d0: fc1d a53e ae3b 39be 6989 153e 1889 0abe
000001e0: c37e 553e dd71 a3bd e75d 8abe 0983 533d
000001f0: 0464 10be fb3e 98be 8cf7 8e3e 2ce3 843e
00000200: 1608 4ebe dff7 0cbe 89df f6be c147 e93d
00000210: d6fd 92be a7ee 383f 2d39 1fbe 47be 71be
00000220: 1f42 c53e 4aac 9f3e c2b5 28bd 1555 ac3e
00000230: c7f7 41be 5fb1 5b3e 19dd a2bd 5a8d 8c3e
00000240: 4ef0 eabe 5a87 eeba 3dd4 1bbf 813f fbbd
00000250: 1bb7 253e 25ab c0be 0eb2 4f3e 7beb 2ebf
00000260: 0e7f 05be d344 40bd 61b1 92bd 14f7 be3d
00000270: ffa4 003f 72a1 4bbe b8fe fa3e 24cb b93e
00000280: 1d8d f0bd 2509 9b3d 43f0 cb3d 7638 103f
00000290: 0672 243f ff67 d43d e7a2 eb3e 9a65 623e
000002a0: b2c9 443e 1496 1b3e 0c19 ea3e 80bf 5bbe
000002b0: 8158 1ebe a84d f13e 2339 293e 4f52 23bb
000002c0: 8aa2 c1be e82a e63e 3552 a0bc f582 9c3e
000002d0: 4f05 9abd 212a c33e bb51 babe 99d2 66bb
000002e0: 1e3e 86be 88bd 043f 3f6d 29bf 825f 11bf
000002f0: 1e00 bc3e 883f 37bd 9389 d9be 2a47 dbbe
00000300: 21bd d7bd 8bae 15bf f0ae 023d 2de7 0c3f
00000310: 5555 91be 33d3 f93d ca8c 903e cef8 ebbd
00000320: ada6 0b3e 891a ee3e dff3 dc3e 3290 ebbc
00000330: 254a 08be 23c4 463e 2ff2 c63e ba6f 963e

lin1.bias f4 [16]
-0.10470999 0.28787977 -0.12826937 0.11013533 -0.12963827 0.06287477 -0.17093328 -0.12114005
0.0048191333 -0.15514442 0.20436993 -0.20405339 0.12191204 -0.026195275 0.031900287 0.06387003
00000000: 3172 d6bd fa64 933e 0c59 03be a28e e13d
00000010: e5bf 04be 7dc4 803d 2209 2fbe 4618 f8bd
00000020: d2e9 9d3b 2ede 1ebe 5a46 513e 5ff3 50be
00000030: 05ad f93d 7997 d6bc e0a9 023d 4ace 823d

lin2.weight f4 [16, 16]
0.2663118 0.40629214 0.7877042 0.26135185 0.16735254 0.23003754 -0.041714635 -0.3793543
0.34446672 0.5066316 0.21570843 -0.36471027 -0.5066996 -0.3306036 0.5746596 -0.27954972
-0.272724 -0.110738784 0.26729864 -0.09493215 0.37577695 0.28685847 -0.26991495 -0.20670629
-0.050975487 -0.5551348 -0.12469398 0.43858936 -0.080099806 -0.6851351 -0.28567803 0.11216454
-0.72402024 0.08511995 -1.0259566 0.3322523 -0.46502113 -0.77044564 -0.003961249 0.29564363
0.35050204 0.078441694 -0.1375538 -0.1740615 0.46719906 -0.16417359 -0.09469002 0.28109926
0.23291756 0.44403204 0.9762769 0.38107616 0.3461505 1.0454357 -0.17237192 0.3165323
-0.43188 -0.6960917 0.03732561 0.43599457 0.14296764 -0.20994826 -0.50939786 -0.2032536
-0.007127989 0.32256603 0.9920077 0.2382641 -0.18138103 -0.11431292 -0.20488092 -0.46641815
0.050055705 0.093569115 -0.2955334 -0.44428933 -0.21398062 0.58061653 0.4435914 -0.31357038
-0.6471465 0.34919938 -0.016321277 0.1901833 -0.2638621 0.24085028 -0.112634555 0.21735784
-0.45554644 -0.8732555 -0.052730367 0.61532927 0.42649576 -0.2055802 0.038597792 0.1884312
-0.23047912 0.18195394 -0.7030203 0.20992717 0.5914373 -0.21127537 -0.20354982 0.70138186
-0.7632374 -0.53157717 -0.5118467 0.17759053 0.18220769 -1.0125593 -0.4823063 -0.58456796
0.1209688 -0.24601965 -0.06924336 -0.16774882 0.40248013 0.18902256 0.3085966 0.28609022
0.06860496 0.76543945 -0.007832663 0.07766878 0.29016212 1.0894123 0.22676958 -0.37765056
-0.11273235 -0.7567145 -1.4502769 -0.16367885 -0.15904297 -0.9448645 -0.22612803 -0.90456146
0.3270026 0.39301953 -0.30533582 -0.40894663 -0.36837125 1.0805644 -0.19462672 0.10425676
0.14192854 -0.603426 0.4532757 0.7563855 -0.006547442 0.3798097 -0.5275015 -0.44750232
0.35554847 0.32176852 0.50310725 -0.5824065 -0.0852544 0.7372124 0.25333437 -0.32330894
0.350522 -0.20832787 0.176615 -0.13624798 -0.54512465 0.4465324 -0.044246364 -0.45172867
0.34143198 0.5376995 -0.1285213 -0.6881201 0.5373099 0.92440355 -0.062108368 0.2203446
-0.49898544 0.7424033 0.7677024 0.30170316 -0.12753634 0.4129561 0.60231674 0.16558531
-0.55211467 -0.95219564 -0.07400284 0.44643912 -0.15151541 0.39626935 0.09607925 0.39456967
0.14488137 0.94770473 1.2202562 -0.121690035 0.061276868 0.54019374 -0.53287363 0.669416
-0.41078153 -0.22889288 -0.33329016 -0.20028047 0.28308237 0.111405134 0.48671228 -0.19275239
0.654906 0.15947847 0.70927614 0.47689366 0.008073565 0.81221026 0.4077213 0.14450063
0.72706324 0.63179547 0.36010513 -0.30249995 -0.34275317 -0.22593522 0.30459478 -0.3454777
-0.57540727 -0.32896826 -1.0432755 0.025457429 -0.13088587 -0.86586875 0.22337468 -0.72724867
0.24158956 -0.29558223 -0.24516033 -0.22884615 0.39112237 -0.37229344 0.015370789 -0.05067993
-0.07138444 0.21303809 -0.3766696 0.0024329736 -0.044874374 -0.46753734 -0.03829071 0.28092197
-0.41180655 -0.33506095 -0.033560567 -0.12481194 0.12820709 -0.45785317 -0.39691803 0.17563805
00000000: 055a 883e 8605 d03e fca6 493f e9cf 853e
00000010: 775e 2b3e f68e 6b3e f7dc 2abd ba3a c2be
00000020: f15d b03e 9cb2 013f ace2 5c3e 4ebb babe
00000030: 11b7 01bf e044 a9be e41c 133f 2421 8fbe
00000040: 7ba2 8bbe 04cb e2bd 5edb 883e c96b c2bd
00000050: d665 c03e 1ddf 923e 4b32 8abe d0aa 53be
00000060: accb 50bd 501d 0ebf 8f5f ffbd c98e e03e
00000070: 5e0b a4bd 0465 2fbf 6444 92be 86b6 e53d
00000080: 6459 39bf 5e53 ae3d 8c52 83bf f91c aa3e
00000090: 4017 eebe ed3b 45bf 5dcd 81bb 9a5e 973e
000000a0: 0175 b33e 0aa6 a03d e7da 0cbe 2e3d 32be
000000b0: b734 ef3e 1f1d 28be d7ec c1bd 3eec 8f3e
000000c0: f181 6e3e 2b58 e33e 48ed 793f 6a1c c33e
000000d0: a33a b13e d6d0 853f 4482 30be 8610 a23e
000000e0: 601f ddbe 1133 32bf bde2 183d ae3a df3e
000000f0: 1c66 123e adfc 56be e667 02bf b621 50be
00000100: e891 e9bb 6027 a53e 37f4 7d3f 81fb 733e
00000110: f3bb 39be e41c eabd 4ecc 51be 5cce eebe
00000120: 3607 4d3d 2aa1 bf3d 2750 97be e479 e3be
00000130: bc1d 5bbe 49a3 143f 691e e33e 4c8c a0be
00000140: 65ab 25bf 43ca b23e 33b4 85bc 69bf 423e
00000150: ef18 87be 75a1 763e f2ac e6bd 0e93 5e3e
00000160: 623d e9be ac8d 5fbf ccfb 57bd 3886 1d3f
00000170: a75d da3e 9e83 52be b818 1e3d 1cf4 403e
00000180: b802 6cbe 2252 3a3e 23f9 33bf 26f7 563e
00000190: 6f68 173f 9258 58be 5d6f 50be c38d 333f
000001a0: 8763 43bf 7115 08bf 6308 03bf 4bda 353e
000001b0: a794 3a3e 8b9b 81bf daf0 f6be 3fa6 15bf
000001c0: 7dbe f73d 93ec 7bbe 76cf 8dbd 59c6 2bbe
000001d0: e011 ce3e 218f 413e 6000 9e3e 6b7a 923e
000001e0: c280 8c3d d7f3 433f 9254 00bc cf10 9f3d
000001f0: 2190 943e dd71 8b3f 4936 683e 6a5b c1be
00000200: 38e0 e6bd 0bb8 41bf aca2 b9bf 6e9b 27be
00000210: 29dc 22be a4e2 71bf 1b8e 67be 5791 67bf
00000220: e36c a73e db39 c93e fa54 9cbe 7461 d1be
00000230: 289b bcbe ef4f 8a3f 3a4c 47be 9184 d53d
00000240: b755 113e 207a 1abf c113 e83e 7ba2 413f
00000250: ed8b d6bb 6b76 c23e 570a 07bf 061f e5be
00000260: 730a b63e d8be a43e a3cb 003f 9818 15bf
00000270: dc99 aebd f4b9 3c3f 0bb5 813e c088 a5be
00000280: 9f77 b33e e753 55be 90da 343e 9784 0bbe
00000290: 4a8d 0bbf e59f e43e ad3b 35bd fb48 e7be
000002a0: 2cd0 ae3e ada6 093f 169b 03be a428 30bf
000002b0: 248d 093f b6a5 6c3f 5865 7ebd 04a2 613e
000002c0: 057b ffbe 250e 3e3f 2588 443f d678 9a3e
000002d0: e398 02be fb6e d33e 6e31 1a3f 328f 293e
000002e0: 6357 0dbf 18c3 73bf cd8e 97bd ab93 e43e
000002f0: db26 1bbe d1e3 ca3e 33c5 c43d 0905 ca3e
00000300: c85b 143e c79c 723f 5b31 9c3f a038 f9bd
00000310: 74fd 7a3d 234a 0a3f 686a 08bf d95e 2b3f
00000320: f551 d2be e562 6abe 02a5 aabe 5316 4dbe
00000330: 2cf0 903e 6028 e43d 5a32 f93e e260 45be
00000340: eba7 273f 534e 233e 1f93 353f 682b f43e
00000350: fc46 043c 03ed 4f3f d9c0 d03e f9f7 133e
00000360: d120 3a3f 59bd 213f b35f b83e 46e1 9abe
00000370: 587d afbe 905b 67be d9f3 9b3e 74e2 b0be
00000380: e44d 13bf 876e a8be 0d8a 85bf 198c d03c
00000390: f206 06be 93a9 5dbf 55bc 643e f82c 3abf
000003a0: 4163 773e 8e56 97be 4f0b 7bbe a556 6abe
000003b0: 3141 c83e 3f9d bebe c3d5 7b3c c295 4fbd
000003c0: 0132 92bd a826 5a3e d6da c0be 8672 1f3b
000003d0: 31ce 37bd 0e61 efbe b8d6 1cbd 01d5 8f3e
000003e0: 4fd8 d2be 1c8d abbe ce76 09bd 679d ffbd
000003f0: b848 033e bb6b eabe d738 cbbe 76da 333e

lin2.bias f4 [16]
-0.13158673 -0.042599846 0.042016886 0.05359793 0.0842585 0.0712985 -0.17232366 -0.14721157
-0.058654953 0.030170608 0.19800268 0.04530607 0.08287587 -0.07726669 -0.03289706 -0.050149567
00000000: acbe 06be 2d7d 2ebd e619 2c3d 8189 5b3d
00000010: b88f ac3d f304 923d 9d75 30be a1be 16be
00000020: 2d40 70bd 5a28 f73c 37c1 4a3e dc92 393d
00000030: d3ba a93d 003e 9ebd 11bf 06bd a269 4dbd

lin3gauss.weight f4 [2, 16]
-0.6759198 0.70222205 -0.11250344 0.9936254 -0.3166436 0.60295725 0.30153802 -0.5219288
-0.33885363 -0.81977785 -0.7667089 0.7095976 0.30263513 -0.89270186 0.20990163 0.8894832
-1.3620948 -0.29084003 0.73259854 -0.7636225 -0.45596996 -0.38484254 0.1543141 0.14900844
0.18731813 -0.45859224 -0.09637155 -0.7324523 -0.47033924 -1.4035826 0.74280745 0.97149456
00000000: 1409 2dbf d3c4 333f 3468 e6bd 3c5e 7e3f
00000010: 1c1f a2be 685b 1a3f 3163 9a3e 209d 05bf
00000020: 397e adbe f6dc 51bf 0947 44bf 30a8 353f
00000030: fef2 9a3e 1c88 64bf 74f0 563e 2cb5 633f
00000040: 1f59 aebf fce8 94be 948b 3b3f c47c 43bf
00000050: e574 e9be 150a c5be 8404 1e3e ab95 183e
00000060: 53d0 3f3e 9acc eabe 725e c5bd fe81 3bbf
00000070: 4ed0 f0be 98a8 b3bf a128 3e3f deb3 783f

lin3gauss.bias f4 [2]
-0.12496043 -0.034160502
00000000: 41eb ffbd e2eb 0bbd
