models/current_model/portable/weights_decoder.pt (torch, 4311 bytes, 6 tensors)

lin1.weight f4 [16, 2]
0.12548362 0.32966343 0.15818422 -0.007903961 0.14943115 -0.27548635 -0.2200304 0.4230075
0.08628054 -0.22375113 0.10347257 0.019725066 0.012741898 -0.3103897 0.039767873 0.0074156807
0.16418076 0.3216527 0.04325212 0.42140254 0.30297172 0.3570343 -0.13280618 -0.12628911
-0.09660082 0.2067513 -0.14401849 0.14355923 0.25896034 -0.13657604 0.042464748 0.13971373
00000000: c77e 003e a5c9 a83e 0bfb 213e 9e7f 01bc
00000010: 7b04 193e 8c0c 8dbe a64f 61be 7094 d83e
00000020: dab3 b03d 041f 65be 6de9 d33d 7696 a13c
00000030: 65c3 503c 66eb 9ebe a3e3 223d 3dff f23b
00000040: 001f 283e aaaf a43e 2329 313d 13c2 d73e
00000050: 1c1f 9b3e 33cd b63e 58fe 07be ef51 01be
00000060: a7d6 c5bd 9db6 533e 9579 13be 3101 133e
00000070: 7396 843e 97da 0bbe 84ef 2d3d 1e11 0f3e

lin1.bias f4 [16]
0.14139171 0.14357223 0.055918187 -0.15605772 0.09318052 0.23150957 0.076560274 -0.15470858
0.19804458 -0.20738232 -0.06834212 0.15167625 -0.118466586 0.091716714 -0.12338895 0.11883837
00000000: fdc8 103e 9904 133e 780a 653d 98cd 1fbe
00000010: 6ed5 be3d d810 6d3e a2cb 9c3d ed6b 1ebe
00000020: 33cc 4a3e 085c 54be f4f6 8bbd 0551 1b3e
00000030: 9c9e f2bd f9d5 bb3d 59b3 fcbd 8861 f33d

lin2.weight f4 [16, 16]
0.29666978 -0.10565673 -0.32536352 0.1333553 -0.29183885 -0.48440874 0.34034273 -0.28345522
-0.08196375 0.22362143 0.057816084 -0.0028922223 0.07261559 -0.5274464 0.39858952 0.2778207
-0.14802943 0.28156742 0.4102915 -0.020171143 0.23847203 -0.07879876 0.092023745 -0.21606538
0.16219021 -0.01735194 0.037521537 -0.5061761 0.2361945 0.050687622 -0.12405625 -0.3240336
-0.28819254 -0.019829674 -0.16272387 0.09931508 0.1072611 0.08179115 0.02740353 0.34926686
0.16739412 -0.42045707 -0.40766007 0.017548436 0.1656739 0.1134057 -0.13624866 0.23883148
-0.14821352 0.045965154 -0.23661816 0.012616857 -0.48279566 0.042641968 -0.10397669 0.11669492
-0.2619383 0.1323777 -0.44403392 -0.03543637 0.063099034 -0.054323755 0.29118988 0.22073194
0.18532279 0.09926965 0.036571305 0.00060368027 -0.002815059 0.38160244 -0.0803462 0.1254075
-0.3191668 -0.1685428 -0.098660946 -0.25706023 0.16841592 -0.4943898 0.15879679 0.2655365
0.1589587 -0.07168375 0.02771326 0.1018159 -0.34171325 0.41057557 0.29325953 -0.31747243
0.09388324 0.35512862 0.22119163 0.40177152 0.060928103 -0.12453665 -0.14037178 0.0020252392
-0.18203934 -0.059672073 -0.31680095 -0.40356022 0.012331199 -0.2805956 -0.5149634 0.29975152
-0.13358034 -0.3563596 -0.21406715 -0.081558354 -0.37632298 -0.25326064 -0.27813402 -0.19493891
0.2375749 -0.17273141 -0.20302458 0.15737608 -0.010337573 0.49296027 -0.0045399615 0.10776807
-0.15208861 -0.33927235 0.21318787 -0.3120285 0.16968803 0.33482942 -0.1719441 -0.4805872
0.18050213 0.048575863 0.14086695 -0.22057533 0.26047325 -0.07716537 -0.07382158 -0.024311457
-0.23344511 -0.081447266 -0.22813495 -0.2548441 -0.2162165 0.16794334 -0.2370024 0.32956374
0.24158126 0.22311912 -0.06003022 0.0029929592 0.075689316 -0.37711644 -0.20646834 0.31588462
-0.35272267 0.14929865 0.36658272 0.20655125 0.017238356 -0.20389691 -0.07816938 0.32616487
-0.39071825 -0.1509632 0.20302114 -0.14677376 0.23789679 0.12631425 -0.19508567 0.19412868
-0.014147606 0.2028431 0.39757115 0.080742575 -0.11827871 0.026393134 -0.4180723 0.35870147
0.18875797 -0.5640286 -0.38504446 -0.22495966 0.03502874 -0.17747262 0.45125338 -0.020192744
0.06256105 -0.37684467 0.30681995 -0.30751237 -0.1674303 -0.0051470394 -0.3757865 0.033223245
0.27395925 -0.21219346 0.36133242 0.22125396 -0.19605473 0.22543345 0.33170122 0.5570249
-0.006095796 0.24514025 -0.20463471 -0.11145793 0.039973922 -0.30830216 0.073936276 -0.28197783
0.26647475 -0.10181954 -0.3201204 0.2598917 0.319345 0.36471236 0.07527073 0.11701197
0.22422285 -0.2785606 -0.22649537 -0.02311169 -0.360439 -0.30080086 0.083223216 0.00494392
0.09978722 0.16508897 -0.09609623 0.04837824 0.35583094 -0.26203358 -0.16862959 0.08784294
-0.15431766 0.18067205 -0.3867278 0.07779498 -0.366188 -0.26513565 0.10599989 0.16722922
0.27801293 -0.12426766 -0.31088167 0.36564448 0.29550436 0.18347684 0.18148766 0.08858456
-0.12623765 -0.08164685 0.23131883 0.26006708 -0.5503013 0.43958932 -0.2817978 0.25259852
00000000: 1ae5 973e 8e62 d8bd 0c96 a6be 4b8e 083e
00000010: e76b 95be 6c04 f8be 6741 ae3e 0b21 91be
00000020: 9cdc a7bd 04fd 643e 8fd0 6c3d 708b 3dbb
00000030: 7cb7 943d ba06 07bf ed13 cc3e 843e 8e3e
00000040: 0795 17be 9b29 903e ba11 d23e f43d a5bc
00000050: 0332 743e 3f61 a1bd f276 bc3d 3e40 5dbe
00000060: 3115 263e a825 8ebc 2fb0 193d c294 01bf
00000070: f9dc 713e d39d 4f3d 3411 febd bbe7 a5be
00000080: f98d 93be d771 a2bc 16a1 26be b465 cb3d
00000090: b5ab db3d 1e82 a73d 5e7d e03c 1bd3 b23e
000000a0: 5d69 2b3e 2646 d7be d2b8 d0be bdc1 8f3c
000000b0: 6ba6 293e 3f41 e83d c584 0bbe 3d90 743e
000000c0: 49c5 17be f545 3c3d 084c 72be efb6 4e3c
000000d0: fe30 f7be 58a9 2e3d bbf1 d4bd bffd ee3d
000000e0: c71c 86be 058e 073e 6a58 e3be ba25 11bd
000000f0: 113a 813d 9682 5ebd d716 953e 8e07 623e
00000100: 42c5 3d3e e34d cb3d cbcb 153d 4c40 1e3a
00000110: da7c 38bb 6561 c33e 8c8c a4bd d36a 003e
00000120: d569 a3be 7c96 2cbe c00e cabd 669d 83be
00000130: 3975 2c3e a920 fdbe a09b 223e 66f4 873e
00000140: 12c6 223e eece 92bd eb06 e33c db84 d03d
00000150: 0af5 aebe f636 d23e 1d26 963e bf8b a2be
00000160: db45 c03d 6bd3 b53e 0f80 623e ffb4 cd3e
00000170: bf8f 793d 120d ffbd 9fbd 0fbe e0b9 043b
00000180: 8568 3abe b46a 74bd bc33 a2be 729f cebe
00000190: cc08 4a3c 3aaa 8fbe a4d4 03bf 0879 993e
000001a0: 49c9 08be c474 b6be 6b34 5bbe 1108 a7bd
000001b0: 68ad c0be 61ab 81be 9567 8ebe 119e 47be
000001c0: d646 733e 81e0 30be ade5 4fbe 3227 213e
000001d0: ec5e 29bc 4a65 fc3e f5c3 94bb 82b5 dc3d
000001e0: 1ebd 1bbe 1bb5 adbe ec4d 5a3e 33c2 9fbe
000001f0: b3c2 2d3e c36e ab3e 1d12 30be 870f f6be
00000200: 8dd5 383e 7cf7 463d 6d3f 103e 80de 61be
00000210: c05c 853e e108 9ebd c52f 97bd d228 c7bc
00000220: 3c0c 6fbe d3cd a6bd 359c 69be ed7a 82be
00000230: dc67 5dbe 57f9 2b3e c2b0 72be 94bc a83e
00000240: 1461 773e 5779 643e 3fe2 75bd 8625 443b
00000250: 0003 9b3d 6815 c1be 706c 53be a1bb a13e
00000260: 1198 b4be bfe1 183e bbb0 bb3e 2c82 533e
00000270: 7437 8d3c 5aca 50be 4517 a0bd 15ff a63e
00000280: 390c c8be 1996 1abe c6e4 4f3e dc4b 16be
00000290: 379b 733e 8658 013e 8ac4 47be abc9 463e
000002a0: 5ccb 67bc 1ab6 4f3e 728e cb3e 5d5c a53d
000002b0: 1c3c f2bd 6a36 d83c 930d d6be b8a7 b73e
000002c0: c549 413e 2e64 10bf 8c24 c5be d35b 66be
000002d0: 4c7a 0f3d 62bb 35be af0a e73e 416b a5bc
000002e0: 0220 803d c9f1 c0be 8117 9d3e 4372 9dbe
000002f0: d972 2bbe 7fa8 a8bb 1767 c0be 1915 083d
00000300: 6344 8c3e 3e49 59be 9000 b93e 6690 623e
00000310: 92c2 48be 07d8 663e bed4 a93e 2f99 0e3f
00000320: 3ebf c7bb 0c06 7b3e c38b 51be 0e44 e4bd
00000330: b2bb 233d c8d9 9dbe e76b 973d 665f 90be
00000340: 616f 883e c386 d0bd d2e6 a3be 8610 853e
00000350: 3081 a33e 94bb ba3e 8a27 9a3d f9a3 ef3d
00000360: ad9a 653e 7f9f 8ebe 67ee 67be ba54 bdbc
00000370: 768b b8be 9202 9abe ef70 aa3d 9b00 a23b
00000380: 3e5d cc3d 150d 293e 1ace c4bd 4328 463d
00000390: 792f b63e 4429 86be 3cad 2cbe 00e7 b33d
000003a0: 7305 1ebe 1802 393e 3001 c6be f952 9f3d
000003b0: fe7c bbbe dcbf 87be 7816 d93d 233e 2b3e
000003c0: b657 8e3e 0b80 febd e22b 9fbe c135 bb3e
000003d0: 594c 973e 5ae1 3b3e e7d7 393e d26b b53d
000003e0: 7144 01be 7736 a7bd d8de 6c3e 8327 853e
000003f0: 8ce0 0cbf da11 e13e cd47 90be 9854 813e

lin2.bias f4 [16]
-0.12012382 -0.03793372 -0.13586059 -0.1492667 0.17431317 0.24257366 -0.059539013 0.062219206
0.27606186 -0.013178111 0.027459526 -0.2211764 -0.2286185 0.11873815 0.16413048 0.13358876
00000000: 7a03 f6bd 6360 1bbd 0a1f 0bbe 5fd9 18be
00000010: 277f 323e 3b65 783e 2edf 73bd 91d9 7e3d
00000020: fb57 8d3e 01e9 57bc cdf2 e03c 117c 62be
00000030: f81a 6abe fd2c f33d d211 283e 7ecb 083e

lin3.weight f4 [13, 16]
0.26808777 -0.08991364 0.026819604 -0.25795364 -0.11913388 0.16092063 -0.13891071 0.08756839
0.17095572 0.66089725 -0.08430528 -0.1597618 0.13439639 -0.07053882 -0.043998893 -0.21597601
-0.26773906 -0.06107621 0.12516989 0.28204808 0.356834 0.21203494 -0.43129438 0.073340975
0.04713428 0.27597925 -0.23147492 -0.20335968 -0.0053109997 -0.32308024 -0.11389385 0.3966663
-0.21865825 -0.10575235 -0.3286612 -0.206396 -0.11949031 0.4840702 -0.3598899 0.07462131
-0.03875257 0.11635273 0.024655314 -0.112566 -0.30307028 0.23010816 -0.01838705 -0.3741025
-0.20421976 -0.53975946 -0.26122442 -0.176788 -0.54557216 -0.17552602 -0.11473265 0.27661175
0.64402694 -0.0323328 0.2058923 -0.16835862 -0.71307874 0.18176226 0.50874245 0.50911635
0.4191828 0.100611195 -0.056880463 0.13395257 -0.123376414 0.31766176 -0.06889108 0.09597883
0.07277256 0.2819514 0.08561667 -0.1332239 0.06898065 0.032430433 0.14687617 -0.08157596
-0.16017781 0.11366025 -0.19231084 0.13650817 -0.06572451 0.4402097 0.20367773 0.14565638
-0.07594416 0.36175227 0.13436817 -0.23320998 0.27794558 0.20909299 -0.0825432 -0.09189098
-0.50681156 0.34392548 0.19896753 -0.51810503 0.6362573 0.31653157 0.39852846 -0.2501947
0.396388 0.2934972 0.11493232 0.41581142 -0.30855522 -0.056261696 0.24901444 0.33191013
-0.48049808 -0.2589722 -0.23516618 -0.35507622 0.42628378 0.16581541 -0.4456846 0.21383579
0.36050776 -0.12573178 0.5206128 0.30679983 0.5997402 0.26717123 0.49572358 -0.23781683
0.0561938 -0.09725815 -0.28951815 -0.1836324 -0.059850655 0.34710994 -0.24181898 0.27675992
-0.07130228 -0.13669224 -0.122445725 -0.13951784 0.08218808 -0.11448543 0.0881951 -0.029428402
-0.16448502 -0.13784635 -0.2572096 -0.09606267 0.16723824 0.08930302 -0.45381603 0.043066822
-0.071029305 0.23857175 -0.1585278 -0.23446706 -0.022058358 -0.065175585 -0.08325636 0.33056787
-0.07562309 -0.17054603 -0.22486258 0.35190818 -0.09725242 0.081409246 -0.7546014 0.19771068
-0.14425875 0.008135813 0.0997545 -0.24395165 0.044890977 0.10025718 0.0062071783 0.14111693
-0.40774456 -0.117691204 -0.2539365 -0.26438683 -0.0017065568 0.16134256 -0.2400309 -0.1027293
0.10528653 0.69899994 0.051069673 -0.37246898 -0.10088994 0.19127813 -0.27391 -0.13851075
0.075256936 -0.0438774 -0.13661051 0.1864981 0.14407551 0.30300227 -0.15990774 0.36031562
-0.11161755 -0.42339844 -0.031450015 -0.123383224 0.2360955 -0.31955934 0.1848917 0.24395554
00000000: cd42 893e a424 b8bd c9b4 db3c 8012 84be
00000010: 77fc f3bd 61c8 243e 9c3e 0ebe 0e57 b33d
00000020: 040f 2f3e 9030 293f 3fa8 acbd 9998 23be
00000030: 359f 093e a876 90bd 2f38 34bd d128 5dbe
00000040: 1815 89be 0c2b 7abd 892c 003e 9b68 903e
00000050: f2b2 b63e b01f 593e 9ed2 dcbe cb33 963d
00000060: e00f 413d 274d 8d3e c307 6dbe 853d 50be
00000070: e507 aebb c66a a5be 2e41 e9bd d817 cb3e
00000080: f3e7 5fbe b094 d8bd 4846 a8be 7959 53be
00000090: 56b7 f4bd 0dd8 f73e 7d43 b8be 0fd3 983d
000000a0: 04bb 1ebd 574a ee3d f1f9 c93c 0189 e6bd
000000b0: 072c 9bbe 79a1 6b3e 70a0 96bc 5d8a bfbe
000000c0: fc1e 51be ad2d 0abf 35bf 85be ea07 35be
000000d0: 9eaa 0bbf 18bd 33be f4f8 eabd 0ea0 8d3e
000000e0: f3de 243f 666f 04bd 6ed5 523e 3466 2cbe
000000f0: 548c 36bf e31f 3a3e f23c 023f 7355 023f
00000100: 219f d63e 3e0d ce3d 7dfb 68bd dd2a 093e
00000110: c6ac fcbd 90a4 a23e c416 8dbd 8c90 c43d
00000120: c809 953d ef5b 903e cb57 af3d d96b 08be
00000130: ba45 8d3d c6d5 043d b566 163e 4c11 a7bd
00000140: a705 24be b5c6 e83d 22ed 44be ccc8 0b3e
00000150: 929a 86bd 2a63 e13e e590 503e f226 153e
00000160: 9d88 9bbd 9837 b93e cf97 093e 99ce 6ebe
00000170: e24e 8e3e 791c 563e 690c a9bd 5731 bcbd
00000180: 67be 01bf 0017 b03e 25be 4b3e 88a2 04bf
00000190: c2e1 223f 6d10 a23e ec0b cc3e 8519 80be
000001a0: 5ef3 ca3e 4445 963e a361 eb3d 3ce5 d43e
000001b0: f3fa 9dbe aa72 66bd a4fd 7e3e 20f0 a93e
000001c0: d803 f6be 0198 84be 67cf 70be 8dcc b5be
000001d0: de41 da3e 84cb 293e c630 e4be c5f7 5a3e
000001e0: 7994 b83e d5bf 00be e146 053f de14 9d3e
000001f0: 9388 193f abca 883e 7bcf fd3e 4186 73be
00000200: 782b 663d 482f c7bd b93b 94be 220a 3cbe
00000210: f625 75bd 65b8 b13e 659f 77be 7ab3 8d3e
00000220: ee06 92bd 0df9 0bbe d3c4 fabd c4dd 0ebe
00000230: 3952 a83d 5677 eabd a29f b43d d513 f1bc
00000240: c36e 28be 9827 0dbe fab0 83be 81bc c4bd
00000250: 8040 2b3e 80e4 b63d 935a e8be d666 303d
00000260: d077 91bd 274c 743e 1d55 22be 2218 70be
00000270: bbb3 b4bc c77a 85bd 4f82 aabd 3140 a93e
00000280: 47e0 9abd 9ea3 2ebe 6042 66be 4f2d b43e
00000290: 472c c7bd e4b9 a63d 8f2d 41bf ab74 4a3e
000002a0: 91b8 13be 134c 053c 164c cc3d 76ce 79be
000002b0: 9adf 373d a353 cd3d 9665 cb3b f580 103e
000002c0: e5c3 d0be 1608 f1bd f703 82be b65d 87be
000002d0: 8bae dfba fc36 253e a9ca 75be bd63 d2bd
000002e0: 77a0 d73d a9f1 323f 6f2e 513d 41b4 bebe
000002f0: 639f cebd 6ade 433e ee3d 8cbe c3d5 0dbe
00000300: 4f20 9a3d cab8 33bd a0e3 0bbe 5cf9 3e3e
00000310: 8888 133e 1d23 9b3e dbbe 23be 4a7b b83e
00000320: be97 e4bd aec7 d8be bbd1 00bd 58b0 fcbd
00000330: 05c3 713e 489d a3be 4054 3d3e 7bcf 793e

lin3.bias f4 [13]
0.04899379 -0.016053045 -0.00990505 0.34837005 -0.04398746 0.07186197 0.23069276 0.121194184
0.021275831 0.0271305 0.104320996 0.019110465 -0.019072846
00000000: b6ad 483d ad81 83bc ca48 22bc 8f5d b23e
00000010: 322c 34bd 5e2c 933d b93a 6c3e a834 f83d
00000020: a74a ae3c c840 de3c 3fa6 d53d 8d8d 9c3c
00000030: a83e 9cbc
