models/current_model/portable/weights_discriminator.pt (torch, 2631 bytes, 5 tensors)

lin1.weight f4 [8, 2]
00000000: b53a 993e 9f23 f03e d7a3 1c3e d5a0 a83e
00000010: 5c3b 58be 8c9a 59bf 2aa3 a83f 8c76 87be
00000020: 39f1 27bf 96a3 c53e ed4b f1bd 51d5 f3be
00000030: 44e0 79bf 43e7 c0be 9f7c 0cbf 9af6 7f3e
0.29927602 0.46902177 0.15296875 0.32935205 -0.21116394 -0.85001445 1.3174794 -0.26457632
-0.6560245 0.3860137 -0.1178206 -0.47623685 -0.9760783 -0.3767644 -0.54877657 0.24996415

lin1.bias f4 [8]
00000000: 936c 083f d2f4 e4be 04c6 cebd d6d4 7cbe
00000010: 16c4 aabd 79f2 8dbe 84e3 92bd 9c2d f83e
0.5329067 -0.44718033 -0.10096362 -0.24690565 -0.08338182 -0.27724054 -0.071723014 0.48472297

lin2.weight f4 [8, 8]
00000000: a798 d73e 5f13 3e3e 370a 273f f9c8 c03e
00000010: 583e 3c3f 6e5d 9ebe 2167 023e dc11 c4be
00000020: 23dd 2f3f 5319 27bf b7c1 8f3f e238 3f3f
00000030: 9fda eabe b3d7 813e 8f70 a73e ae60 a2be
00000040: b0cb 493f 279f 28bd b595 38be bc9d 14bf
00000050: a3d2 0c3e 08ff 13bf ac32 2b3f 0d54 dd3e
00000060: 6e68 373f f3e7 9ebf bb9a 353e cc7f b8bd
00000070: d082 56bf 9b99 c0be 213f a9be 9ce7 ad3e
00000080: 9943 d0bf 92ae 16bf 6b4d 15bf 4da4 a9be
00000090: 4163 adbe b876 153f fb92 213e 3c33 c13c
000000a0: 8df3 a5bd 02fc 553f a6a9 81be 5781 cc3d
000000b0: cc5a 513e 9028 dfbd 6d98 66bd befb a1be
000000c0: 4ec2 223e 43b9 ed3e 9948 3f3f e350 ac3e
000000d0: dff7 9a3c 6630 ad3d 573a 143f 7ce4 473f
000000e0: 2d34 20bf e454 bf3c 5efe 8d3d 007c 1cbd
000000f0: 82e5 de3e 42b2 a33e 27b3 71be dbfa 2d3d
0.42108652 0.18562077 0.6524996 0.3765333 0.7353263 -0.30930656 0.12734653 -0.38294876
0.686968 -0.65273017 1.1230992 0.7469617 -0.4586992 0.25359878 0.32703063 -0.31714386
0.7882643 -0.041167405 -0.18025859 -0.58053184 0.13752227 -0.5781102 0.66874194 0.43228188
0.7164372 -1.2414535 0.17734806 -0.0900875 -0.83793354 -0.37617192 -0.33055976 0.33965766
-1.6270629 -0.58860123 -0.58321255 -0.33133164 -0.33864787 0.58384275 0.15778725 0.023584
-0.08103094 0.8358766 -0.25324744 0.09985607 0.20444793 -0.108964086 -0.05629771 -0.31637377
0.15894434 0.46430406 0.7472015 0.33655462 0.018917022 0.08456497 0.5790152 0.78083014
-0.62579614 0.023355909 0.06933282 -0.038204193 0.43534476 0.31971937 -0.23603497 0.042475563

lin2.bias f4 [8]
00000000: 3ccd 99be d84f 9dbe e86c cbbe 864d ef3e
00000010: 7bf9 123f 5ee2 7abc 147d 13be cefb 163f
-0.30039394 -0.30724978 -0.39731526 0.46738833 0.57411927 -0.015312759 -0.14403182 0.58977973

lin3.weight f4 [1, 8]
00000000: ae9f f8be 4f47 a93e 9891 c53e f899 1a3f
00000010: 428a 8f3e 3350 51be a843 8bbd 00a5 7ebe
-0.48559326 0.33062217 0.38587642 0.6039119 0.2803517 -0.2044075 -0.06800014 -0.2486763
